…
2020-05-30 10:57:21.119578: I tensorflow/core/platform/profile_utils/cpu_utils.cc:102] CPU Frequency: 2994350000 Hz
2020-05-30 10:57:21.162933: I tensorflow/compiler/xla/service/service.cc:168] XLA service 0x7fc038000b20 initialized for platform Host (this does not guarantee that XLA will be used). Devices:
2020-05-30 10:57:21.163058: I tensorflow/compiler/xla/service/service.cc:176]   StreamExecutor device (0): Host, Default Version
Model: "sequential_1"
_________________________________________________________________
Layer (type)                 Output Shape              Param #   
=================================================================
conv2d_1 (Conv2D)            (None, 28, 28, 20)        520       
_________________________________________________________________
activation_1 (Activation)    (None, 28, 28, 20)        0         
_________________________________________________________________
max_pooling2d_1 (MaxPooling2 (None, 14, 14, 20)        0         
_________________________________________________________________
conv2d_2 (Conv2D)            (None, 14, 14, 50)        25050     
_________________________________________________________________
activation_2 (Activation)    (None, 14, 14, 50)        0         
_________________________________________________________________
max_pooling2d_2 (MaxPooling2 (None, 7, 7, 50)          0         
_________________________________________________________________
flatten_1 (Flatten)          (None, 2450)              0         
_________________________________________________________________
dense_1 (Dense)              (None, 500)               1225500   
_________________________________________________________________
activation_3 (Activation)    (None, 500)               0         
_________________________________________________________________
dense_2 (Dense)              (None, 10)                5010      
_________________________________________________________________
activation_4 (Activation)    (None, 10)                0         
=================================================================
Total params: 1,256,080
Trainable params: 1,256,080
Non-trainable params: 0
_________________________________________________________________
None
Train on 60000 samples, validate on 10000 samples
Epoch 1/1
  128/60000 [..............................] - ETA: 38:19 - loss: 2.3141 - accuracy: 0.0859
…
